readme_figs/baseball_player.npz (npz, 196872 bytes, 1 tensors)

arr_0 f8 [8192, 3]
0	0xc01797ad470f583b	-5.898121939002574
1	0x403357042a57a6f4	19.33990730895944
2	0x406246bfebd928cd	146.21092789091054
3	0xc01fc06af0982174	-7.937907943044014
4	0x403665223f1935fa	22.395053809790603
5	0x4061fb9e9a8f8e6f	143.86311080969196
6	0xc01561be22bd92f8	-5.345451872654614
7	0x4034d9102471bd82	20.84790256287443
8	0x4061cf53e3215472	142.47899014005412
9	0xc0204df9699fcffc	-8.152293492086748
10	0x4036c487cf7b2758	22.767697303358858
11	0x406252995d2194ee	146.5812211662191
12	0xc017fb0cd1535bdb	-5.995166083061998
13	0x4038dfee3d0541b0	24.874728978904102
14	0x40628b66dd9bcc7c	148.35630684308478
15	0xc01aad618778635f	-6.6693173567990405
16	0x403b01ddb225e26d	27.00728906083025
17	0x40623e897edccc16	145.9542841255613
18	0xc01ef1fdf4f5c7ee	-7.73632033109787
19	0x4038e64c3cf08865	24.89960080025084
20	0x406231c88f6e023e	145.5557324551209
21	0xc038b9850454bff2	-24.72468592709624
22	0x403739b8136efc8b	23.225465025516808
23	0x40610a736221c687	136.32658487889077
24	0xc0368b33a8ca104d	-22.543757008869125
25	0x4036ba58e1857b7e	22.727918715561366
26	0x40610a4f3fd76f2c	136.32217399670606
27	0xc039fb9d02da8e85	-25.982864549978803
28	0x4036677253956eed	22.404088233931294
29	0x4060c79759eade33	134.23722549317026
30	0xc034559a7b7b7119	-20.334388463627963
31	0x4037663fed4861e6	23.399412946864594
32	0x4061304aaaca452c	137.5091146421995
33	0xc0372d987f2b2fee	-23.178108165782696
34	0x403873f1c77285a0	24.452908006152597
35	0x40614185378277d5	138.04751182062196
36	0xc038080331eada16	-24.0312987516755
37	0x403c6f60561b1d61	28.435063726062598
38	0x40617b9e08116b38	139.86304095651735
39	0xc033b755f4784332	-19.71615531860443
40	0x403cf24c3f235de5	28.94647593129584
41	0x4061a0bf8ed8d1e4	141.02338354442247
42	0xc035be4ec16f3629	-21.743389215136776
43	0x403a32ced7133ae5	26.198468630022848
44	0x406177fd7a65d8ab	139.74969215289943
45	0xc03c77af0f259f5a	-28.467514940915272
46	0x403a3d26ad3fc604	26.238871410436346
47	0x40613aea6a757088	137.84111521661202
48	0xc039e7b3e4d1fab4	-25.905088711990814
49	0x403af535f8da6e46	26.95785479862959
50	0x40615e72d794720c	138.9515188121153
51	0xc040aa7480351d5a	-33.331680322585
52	0x403ae81c23eb2d54	26.906679387012744
53	0x4060cfc0a30de846	134.49226525036119
54	0xc041e5546eee8124	-35.79163920064664
55	0x403afe8295328bde	26.994180035438937
56	0x406090d9077fed70	132.52649283395613
57	0xc04007b88ab9ceaa	-32.060319271780216
58	0x403c00700db8e27f	28.001709802282218
59	0x40610853f160a39e	136.26024693369703
60	0xc03e6d6e9302ea4c	-30.42746847935841
61	0x40395ea5d6d7daae	25.36971800584677
62	0x4060f50740679e00	135.65713520276768
63	0xc040ad859480b117	-33.35563904079225
64	0x40389dd330278045	24.616503724712192
65	0x40608a03fc948af3	132.31298665058384
66	0xc03f957dad977d7c	-31.583948945507913
67	0x403862d58c5094a4	24.38607098548222
68	0x4060b135a675e9ed	133.53779910116228
69	0xc03bef7a2dafb412	-27.935458045383776
70	0x40384a44b462d207	24.29011084950073
71	0x40611873d558f4c6	136.76413981794593
72	0xc03e6bca6106a384	-30.42105680858687
73	0x40372e1d6f60330e	23.18013664339656
74	0x40608911571d3432	132.28336673454174
75	0xc03c9f36e05fff8e	-28.62193109840114
76	0x40379ac6c0008293	23.60459518444493
77	0x4060d769e649d7fb	134.73167719290345
78	0xc036bcf9611b1560	-22.738180226432974
79	0x403f9498c28793e0	31.580455930805215
80	0x40617329f80b55a0	139.59887315953983
81	0xc03aed0b45296190	-26.925953219034966
82	0x403f2702db0275b6	31.15238732156805
83	0x406147a2f5866796	138.2386424660769
84	0xc037152316d8a239	-23.082566669358332
85	0x4042025eb72be371	36.01851548808089
86	0x4061067adc8c6cf3	136.20249774386284
87	0xc03af4b1151a1d96	-26.955827063442108
88	0x4041fd1bb8f23ba8	35.9774085219172
89	0x4060e037ee2b939a	135.00682743559884
90	0xc039981cc42265aa	-25.59418893661283
91	0x4040938c2b001624	33.152715086977224
92	0x406140f4dd09fd72	138.02989055586983
93	0xc03a54d10f319917	-26.33131499253167
94	0x40414418f59432e8	34.53201169716141
95	0x4061123f25d0459b	136.570208460599
96	0xc036d2c1ddbd3470	-22.82327066296824
97	0x40413dcdaa8579c2	34.482838931249276
98	0x406140a23991ff02	138.019802842282
99	0xc03d9272d74a5535	-29.572064834258715
100	0x40418d652514b7bb	35.10464919578177
101	0x4060dcd1186e3bb6	134.90052434472972
102	0xc03edb7967b78c74	-30.857321245490724
103	0x4042251c328c8534	36.28992301808685
104	0x4060b1c6ace7fb5a	133.55550236996606
105	0xc03dd70ee9d6da6a	-29.840071310953512
106	0x404064a9b0e5786b	32.78642855839356
107	0x4061164ca45a2e8d	136.6968557130207
108	0xc040d548abcc642f	-33.66628024559065
109	0x4041e2e5b673833a	35.77263527527107
110	0x406095e3b1ca21dc	132.68404473761518
111	0xc040d6bb8a85453a	-33.67759830005021
112	0x4040b283454725e2	33.394631061306214
113	0x4060c624c15ddc70	134.19198673565143
114	0xc03fc9a78b3664e4	-31.787712765483676
115	0x404144bdce79f248	34.537042436164995
116	0x4060d05c03579f20	134.5112320624694
117	0xc041efd59f08008e	-35.87370670214396
118	0x403f67ed7236116a	31.40596689052601
119	0x4060a9a0993501de	133.30085430481898
120	0xc0403896901b1b9d	-32.44209481547953
121	0x403efe70288363dd	30.99389889915243
122	0x4060f22535beef3a	135.56704222957507
123	0xc03e01906aa6f4aa	-30.006109872589754
124	0x403d700b6dfda5b0	29.437674402642813
125	0x4061339762bef215	137.61222970289296
126	0xc041b3d38c159865	-35.404893408341
127	0x403d53d00013216d	29.327392582579183
128	0x4060be9edda5e9fa	133.95689279942582
129	0xc0390fef7e8b0276	-25.062248143136877
130	0x4042a7591318d9c4	37.30740584100161
131	0x4060c037ef935f1a	134.0068281057691
132	0xc03a985ab7daa9ba	-26.595134249577065
133	0x404337df7289b371	38.43650657390288
134	0x4060819a3a0ea9f6	132.05007651199384
135	0xc0378ff40931b3e1	-23.562317442545353
136	0x404460b7e75fea7d	40.755612298807115
137	0x40600055edfd6488	128.01048945894968
138	0xc038149b8b06b374	-24.080498398910507
139	0x4043dc266ea6b9f6	39.719922858628635
140	0x40606229b37c0cf4	131.06759046772606
141	0xc03d1d709b92e26a	-29.114999507294137
142	0x404318bf2b914dc2	38.19333405108365
143	0x406085638bef936f	132.1684016875474
144	0xc037fe321fa6d53c	-23.992952326040935
145	0x4043f42caefbc480	39.907613633092296
146	0x405f82122ef59f3b	126.03235982882045
147	0xc037be00dec78e09	-23.74220077869362
148	0x4042ef058873ef24	37.867356354340046
149	0x405ea7bc7e7ddc7d	122.62087976733342
150	0xc038380c703d4f40	-24.21893979546371
151	0x40413db57f3785da	34.48210134707524
152	0x405e2457f99cbeec	120.56786957080084
153	0xc037fbca7180c46a	-23.983557790696445
154	0x403f392230813926	31.223177939938203
155	0x405d504fba6c0d5a	117.25486622383087
156	0xc03804c51290c09d	-24.018632088031712
157	0x403b9d85f82d9017	27.615325461505645
158	0x405ef59db57ebe87	123.83775079133385
159	0xc038be32b9acbcfb	-24.742961506531156
160	0x40398f8b91d352c1	25.56072341355571
161	0x405fb6cf83230fd9	126.85641554283156
162	0xc03858b5bdabef2c	-24.34652314612974
163	0x403de7a66d2df27e	29.90488321658858
164	0x405eb61eafc96d1b	122.8456229655316
165	0xc036bbc4c7b62812	-22.73347137639218
166	0x403878529d79c62a	24.470010606985092
167	0x406008ec2643d5cf	128.2788268399149
168	0xc038ce82d92f5c94	-24.80668408781328
169	0x40379479f0560200	23.579985638616563
170	0x406051af14cbd88a	130.55262222112316
171	0xc03763c8b2bf44cd	-23.389781161972497
172	0x40367d1c2d9d7088	22.488711214959523
173	0x4060aafb8928fe1e	133.34320505148293
174	0xc03c9f1030adecb7	-28.62134079214294
175	0x403688fd15ef5a50	22.535111781059015
176	0x40606c86f7f1d5d2	131.3914756511063
177	0xc03c51df210e2414	-28.319810930206657
178	0x4036bf325d3450a2	22.746862244865618
179	0x406024765a64206f	129.13944739871974
180	0xc03af70fa906e074	-26.965082706622027
181	0x40383b6f8be21dba	24.232170813278323
182	0x405fc39fbac536e8	127.05662411936976
183	0xc046c6f33b1c0c72	-45.55429781789361
184	0x404069edd681bce6	32.8275707372175
185	0x405cdb34738b8c48	115.42507637622577
186	0xc046829885e39cca	-45.02027963270082
187	0x403ea9d698c9fc8a	30.663430737794023
188	0x405c7ee276a59468	113.98257223291296
189	0xc0476ca9240e43b5	-46.848911768879965
190	0x4041b7f1607ac7c7	35.43705373759399
191	0x405c4f076f8dc8ad	113.23482884260257
192	0xc046971043427460	-45.18018379921773
193	0x403ed821deb099a2	30.844266813388124
194	0x405be8aeadd10b09	111.63566155828825
195	0xc04728d0c06b41f2	-46.318870594379305
196	0x404280aff26666a1	37.00536947250408
197	0x405cedee4de98080	115.71766994288373
198	0xc04700a08c155690	-46.00489951173688
199	0x40416c3dbe414f59	34.845634252442956
200	0x405d0f01dcae1733	116.23448864937818
201	0xc045def27ab6fca2	-43.741774882649466
202	0x40454655d296a6c4	42.54949409824397
203	0x405daa448536d0d8	118.66043215134721
204	0xc046128762ed7f71	-44.14475666615079
205	0x40443eada9e17e72	40.48967479238935
206	0x405dd06f31685c94	119.25678668204847
207	0xc046baf65d286457	-45.46064342949165
208	0x40444fa2d49fd998	40.62215669446158
209	0x405d402084d91176	117.00198479841296
210	0xc046da411a134186	-45.705111750986404
211	0x404588a3ccef7787	43.06749879543991
212	0x405cbf004b524aca	114.98439295803396
213	0xc0450d08a916a3df	-42.10182679753756
214	0x404650ead9cbd22b	44.63216707660862
215	0x405d6e1c359e9a98	117.72047176827107
216	0xc0440d2db18f61c3	-40.10295695782727
217	0x4046e74f9ad62b62	45.807116846632894
218	0x405d76bc954db0b2	117.85526020609794
219	0xc0449e1d46dd43e3	-41.23526845745052
220	0x4045cb6b38b07018	43.589209638739874
221	0x405deb9ada3d6bc4	119.68132644651547
222	0xc042d8d51acf6940	-37.69400344016549
223	0x40472377ae12412c	46.27708984271371
224	0x405d6987f628de0a	117.64892343512489
225	0xc0427627f1500b75	-36.9230939522594
226	0x40482bd91c3f136a	48.34256318168521
227	0x405c657420c7043c	113.58521289286813
228	0xc043108c389adc47	-38.129279208770235
229	0x4047b4f087b8fb49	47.41359039814285
230	0x405cd7f581b8681a	115.37435954102003
231	0xc04439d07e7b7de0	-40.45167523412579
232	0x4047b01c5707e478	47.3758648670709
233	0x405cd21cf9361858	115.28301840098118
234	0xc045f00baa5d9f7c	-43.8753560025352
235	0x404663f3d4347831	44.780878568286774
236	0x405cfa17aecfe6ff	115.90769548705065
237	0xc04109a7d3abbee0	-34.07543416868225
238	0x4046f5025dea2f1f	45.91413473067063
239	0x405cfc66bcf44f23	115.94377063616098
240	0xc04049edf5736706	-32.57757442603001
241	0x4046363cbe15ad0a	44.42372871454616
242	0x405ccb1f1a04cfac	115.1737732932076
243	0xc03fb7dcf349ad56	-31.718215184676716
244	0x40440ebdc8fdbcbb	40.11516678227914
245	0x405bec9e823d82b1	111.69717460638891
246	0xc04027feb81f8ea3	-32.31246091404798
247	0x40458ab237ea63ea	43.08356379456366
248	0x405c4c0f940c1640	113.18845082455027
249	0xc0409198d3c6d5e8	-33.13747641762512
250	0x4044cbdf9d7a43b0	41.592761692714134
251	0x405b61f19182b91c	109.53036916509558
252	0xc040db580c6a1e99	-33.71362452680223
253	0x4045e6fa425df210	43.80451230609117
254	0x405b8a46b615cabd	110.16056587341423
255	0xc04145f10ec63054	-34.54641899754702
